…
cution":{"iopub.status.busy":"2023-07-14T18:19:20.957297Z","iopub.execute_input":"2023-07-14T18:19:20.957504Z","iopub.status.idle":"2023-07-14T18:19:20.969972Z","shell.execute_reply.started":"2023-07-14T18:19:20.957478Z","shell.execute_reply":"2023-07-14T18:19:20.969123Z"},"trusted":true},"execution_count":10,"outputs":[{"name":"stdout","text":"Model: \"sequential\"\n_________________________________________________________________\nLayer (type)                 Output Shape              Param #   \n=================================================================\nrescaling (Rescaling)        (None, 128, 128, 3)       0         \n_________________________________________________________________\nconv2d (Conv2D)              (None, 128, 128, 16)      448       \n_________________________________________________________________\nmax_pooling2d (MaxPooling2D) (None, 64, 64, 16)        0         \n_________________________________________________________________\nconv2d_1 (Conv2D)            (None, 64, 64, 32)        4640      \n_________________________________________________________________\nmax_pooling2d_1 (MaxPooling2 (None, 32, 32, 32)        0         \n_________________________________________________________________\ndropout (Dropout)            (None, 32, 32, 32)        0         \n_________________________________________________________________\nconv2d_2 (Conv2D)            (None, 32, 32, 64)        18496     \n_________________________________________________________________\nmax_pooling2d_2 (MaxPooling2 (None, 16, 16, 64)        0         \n_________________________________________________________________\ndropout_1 (Dropout)          (None, 16, 16, 64)        0         \n_________________________________________________________________\nflatten (Flatten)            (None, 16384)             0         \n_________________________________________________________________\ndense (Dense)                (None, 128)               2097280   \n_________________________________________________________________\ndense_1 (Dense)              (None, 64)                8256      \n_________________________________________________________________\ndense_2 (Dense)              (None, 4)                 260       \n=================================================================\nTotal params: 2,129,380\nTrainable params: 2,129,380\nNon-trainable params: 0\n_________________________________________________________________\n","output_type":"stream"}]},{"cell_type":"code","source":"hist = model.fit(train_ds,validation_data=val_ds,epochs=100, batch_size=64, verbose=1)","metadata":{"execution":{"iopub.
…
